…
                    backbone_net=ResNet18Conv(input_channel=3, input_coord_conv=False)
                    pool_net=SpatialSoftmax(num_kp=32, temperature=1.0, noise=0.0)
                  )
                  sharing_from=None
              )
              Key(
                  name=robot0_gripper_qpos
                  shape=[2]
                  modality=low_dim
                  randomizer=None
                  net=None
                  sharing_from=None
              )
              output_shape=[147]
          )
      )
      (noise_pred_net): ConditionalUnet1D(
        (mamba_layer): MambaLayer(
          (norm): LayerNorm((1024,), eps=1e-05, elementwise_affine=True)
          (mamba): Mamba(
            (in_proj): Linear(in_features=1024, out_features=4096, bias=False)
            (conv1d): Conv1d(2048, 2048, kernel_size=(4,), stride=(1,), padding=(3,), groups=2048)
            (act): SiLU()
            (x_proj): Linear(in_features=2048, out_features=96, bias=False)
            (dt_proj): Linear(in_features=64, out_features=2048, bias=True)
            (out_proj): Linear(in_features=2048, out_features=1024, bias=False)
          )
        )
        (diffusion_step_encoder): Sequential(
          (0): SinusoidalPosEmb()
          (1): Linear(in_features=256, out_features=1024, bias=True)
          (2): Mish()
          (3): Linear(in_features=1024, out_features=256, bias=True)
        )
        (up_modules): ModuleList(
          (0): ModuleList(
            (0): ConditionalResidualBlock1D(
              (blocks): ModuleList(
                (0): Conv1dBlock(
                  (block): Sequential(
                    (0): Conv1d(2048, 512, kernel_size=(5,), stride=(1,), padding=(2,))
                    (1): GroupNorm(8, 512, eps=1e-05, affine=True)
                    (2): Mish()
                  )
                )
                (1): Conv1dBlock(
                  (block): Sequential(
                    (0): Conv1d(512, 512, kernel_size=(5,), stride=(1,), padding=(2,))
                    (1): GroupNorm(8, 512, eps=1e-05, affine=True)
                    (2): Mish()
                  )
                )
              )
              (cond_encoder): Sequential(
                (0): Mish()
                (1): Linear(in_features=550, out_features=1024, bias=True)
                (2): Unflatten(dim=-1, unflattened_size=(-1, 1))
              )
              (residual_conv): Conv1d(2048, 512, kernel_size=(1,), stride=(1,))
            )
            (1): ConditionalResidualBlock1D(
              (blocks): ModuleList(
                (0-1): 2 x Conv1dBlock(
                  (block): Sequential(
                    (0): Conv1d(512, 512, kernel_size=(5,), stride=(1,), padding=(2,))
                    (1): GroupNorm(8, 512, eps=1e-05, affine=True)
                    (2): Mish()
                  )
                )
              )
              (cond_encoder): Sequential(
                (0): Mish()
                (1): Linear(in_features=550, out_features=1024, bias=True)
                (2): Unflatten(dim=-1, unflattened_size=(-1, 1))
              )
              (residual_conv): Identity()
            )
            (2): Upsample1d(
              (conv): ConvTranspose1d(512, 512, kernel_size=(4,), stride=(2,), padding=(1,))
            )
          )
          (1): ModuleList(
            (0): ConditionalResidualBlock1D(
              (blocks): ModuleList(
                (0): Conv1dBlock(
                  (block): Sequential(
                    (0): Conv1d(1024, 256, kernel_size=(5,), stride=(1,), padding=(2,))
                    (1): GroupNorm(8, 256, eps=1e-05, affine=True)
                    (2): Mish()
                  )
                )
                (1): Conv1dBlock(
                  (block): Sequential(
                    (0): Conv1d(256, 256, kernel_size=(5,), stride=(1,), padding=(2,))
                    (1): GroupNorm(8, 256, eps=1e-05, affine=True)
                    (2): Mish()
                  )
                )
              )
              (cond_encoder): Sequential(
                (0): Mish()
                (1): Linear(in_features=550, out_features=512, bias=True)
                (2): Unflatten(dim=-1, unflattened_size=(-1, 1))
              )
              (residual_conv): Conv1d(1024, 256, kernel_size=(1,), stride=(1,))
            )
            (1): ConditionalResidualBlock1D(
              (blocks): ModuleList(
                (0-1): 2 x Conv1dBlock(
                  (block): Sequential(
                    (0): Conv1d(256, 256, kernel_size=(5,), stride=(1,), padding=(2,))
                    (1): GroupNorm(8, 256, eps=1e-05, affine=True)
                    (2): Mish()
                  )
                )
              )
              (cond_encoder): Sequential(
                (0): Mish()
                (1): Linear(in_features=550, out_features=512, bias=True)
                (2): Unflatten(dim=-1, unflattened_size=(-1, 1))
              )
              (residual_conv): Identity()
            )
            (2): Upsample1d(
              (conv): ConvTranspose1d(256, 256, kernel_size=(4,), stride=(2,), padding=(1,))
            )
          )
        )
        (down_modules): ModuleList(
          (0): ModuleList(
            (0): ConditionalResidualBlock1D(
              (blocks): ModuleList(
                (0): Conv1dBlock(
                  (block): Sequential(
                    (0): Conv1d(10, 256, kernel_size=(5,), stride=(1,), padding=(2,))
                    (1): GroupNorm(8, 256, eps=1e-05, affine=True)
                    (2): Mish()
                  )
                )
                (1): Conv1dBlock(
                  (block): Sequential(
                    (0): Conv1d(256, 256, kernel_size=(5,), stride=(1,), padding=(2,))
                    (1): GroupNorm(8, 256, eps=1e-05, affine=True)
                    (2): Mish()
                  )
                )
              )
              (cond_encoder): Sequential(
                (0): Mish()
                (1): Linear(in_features=550, out_features=512, bias=True)
                (2): Unflatten(dim=-1, unflattened_size=(-1, 1))
              )
              (residual_conv): Conv1d(10, 256, kernel_size=(1,), stride=(1,))
            )
            (1): ConditionalResidualBlock1D(
              (blocks): ModuleList(
                (0-1): 2 x Conv1dBlock(
                  (block): Sequential(
                    (0): Conv1d(256, 256, kernel_size=(5,), stride=(1,), padding=(2,))
                    (1): GroupNorm(8, 256, eps=1e-05, affine=True)
                    (2): Mish()
                  )
                )
              )
              (cond_encoder): Sequential(
                (0): Mish()
                (1): Linear(in_features=550, out_features=512, bias=True)
                (2): Unflatten(dim=-1, unflattened_size=(-1, 1))
              )
              (residual_conv): Identity()
            )
            (2): Downsample1d(
              (conv): Conv1d(256, 256, kernel_size=(3,), stride=(2,), padding=(1,))
            )
          )
          (1): ModuleList(
            (0): ConditionalResidualBlock1D(
              (blocks): ModuleList(
                (0): Conv1dBlock(
                  (block): Sequential(
                    (0): Conv1d(256, 512, kernel_size=(5,), stride=(1,), padding=(2,))
                    (1): GroupNorm(8, 512, eps=1e-05, affine=True)
                    (2): Mish()
                  )
                )
                (1): Conv1dBlock(
                  (block): Sequential(
                    (0): Conv1d(512, 512, kernel_size=(5,), stride=(1,), padding=(2,))
                    (1): GroupNorm(8, 512, eps=1e-05, affine=True)
                    (2): Mish()
                  )
                )
              )
              (cond_encoder): Sequential(
                (0): Mish()
                (1): Linear(in_features=550, out_features=1024, bias=True)
                (2): Unflatten(dim=-1, unflattened_size=(-1, 1))
              )
              (residual_conv): Conv1d(256, 512, kernel_size=(1,), stride=(1,))
            )
            (1): ConditionalResidualBlock1D(
              (blocks): ModuleList(
                (0-1): 2 x Conv1dBlock(
                  (block): Sequential(
                    (0): Conv1d(512, 512, kernel_size=(5,), stride=(1,), padding=(2,))
                    (1): GroupNorm(8, 512, eps=1e-05, affine=True)
                    (2): Mish()
                  )
                )
              )
              (cond_encoder): Sequential(
                (0): Mish()
                (1): Linear(in_features=550, out_features=1024, bias=True)
                (2): Unflatten(dim=-1, unflattened_size=(-1, 1))
              )
              (residual_conv): Identity()
            )
            (2): Downsample1d(
              (conv): Conv1d(512, 512, kernel_size=(3,), stride=(2,), padding=(1,))
            )
          )
          (2): ModuleList(
            (0): ConditionalResidualBlock1D(
              (blocks): ModuleList(
                (0): Conv1dBlock(
                  (block): Sequential(
                    (0): Conv1d(512, 1024, kernel_size=(5,), stride=(1,), padding=(2,))
                    (1): GroupNorm(8, 1024, eps=1e-05, affine=True)
                    (2): Mish()
                  )
                )
                (1): Conv1dBlock(
                  (block): Sequential(
                    (0): Conv1d(1024, 1024, kernel_size=(5,), stride=(1,), padding=(2,))
                    (1): GroupNorm(8, 1024, eps=1e-05, affine=True)
                    (2): Mish()
                  )
                )
              )
              (cond_encoder): Sequential(
                (0): Mish()
                (1): Linear(in_features=550, out_features=2048, bias=True)
                (2): Unflatten(dim=-1, unflattened_size=(-1, 1))
              )
              (residual_conv): Conv1d(512, 1024, kernel_size=(1,), stride=(1,))
            )
            (1): ConditionalResidualBlock1D(
              (blocks): ModuleList(
                (0-1): 2 x Conv1dBlock(
                  (block): Sequential(
                    (0): Conv1d(1024, 1024, kernel_size=(5,), stride=(1,), padding=(2,))
                    (1): GroupNorm(8, 1024, eps=1e-05, affine=True)
                    (2): Mish()
                  )
                )
              )
              (cond_encoder): Sequential(
                (0): Mish()
                (1): Linear(in_features=550, out_features=2048, bias=True)
                (2): Unflatten(dim=-1, unflattened_size=(-1, 1))
              )
              (residual_conv): Identity()
            )
            (2): Identity()
          )
        )
        (final_conv): Sequential(
          (0): Conv1dBlock(
            (block): Sequential(
              (0): Conv1d(256, 256, kernel_size=(5,), stride=(1,), padding=(2,))
              (1): GroupNorm(8, 256, eps=1e-05, affine=True)
              (2): Mish()
            )
          )
          (1): Conv1d(256, 10, kernel_size=(1,), stride=(1,))
        )
      )
    )
  )
)

SequenceDataset: loading dataset into memory...
  0%|                                                                     | 0/200 [00:00<?, ?it/s] 14%|########2                                                  | 28/200 [00:00<00:00, 276.41it/s] 28%|################8                                          | 57/200 [00:00<00
…
